saved_models/jedinet_epochs10_bs64_lr1eneg2_wd1eneg3_onecycle_loss1.11.pt (torch, 38883 bytes, 18 tensors)

fr1.weight f4 [50, 32]
000000 13 76 2f bd 3b f3 07 be 59 e9 d4 3d c0 68 cf 3d
       -0.042837214 -0.13276379 0.1039607 0.10127401
000010 27 a0 ab 3c c2 5a 20 be 9a 01 88 3d 42 2f 11 bd
       0.02095039 -0.15659621 0.066409305 -0.03544546
000020 fd c1 3c be 81 54 9e 3d 20 55 82 3b aa 63 9e bd
       -0.18433376 0.077309616 0.003977433 -0.07733853
000030 e5 3c cc bd 47 4f 3e be 9e 4c b7 bc fe e0 1b 3d
       -0.09972552 -0.1858493 -0.022375401 0.038056366
000040 35 9c 35 3d 63 05 fd 3c 55 77 f5 3d 36 e9 fa bd
       0.044338424 0.030886358 0.119856514 -0.12251513
000050 50 1a 20 be e2 3c 3a bd f5 6d ad bd 2e d4 6a 3d
       -0.15635037 -0.04546822 -0.08468238 0.057331257
000060 c8 17 35 be ae 79 51 3e 7a fe 5b bd f4 62 4b 3c
       -0.17684853 0.20456573 -0.053709485 0.012413729
000070 b4 3a 1f 3e cb 82 6d bd d9 3d ee 3d 88 be 23 3d
       0.15549737 -0.057986062 0.1163289 0.039976627
000080 26 69 0d 3e 04 28 81 3c 0d 62 96 bd 21 24 d8 bd
       0.13809642 0.015766151 -0.073429205 -0.10553766
000090 77 79 a3 bd 77 26 2b 3e 84 58 bf 3d 6d 1d 36 3d
       -0.07982152 0.16713892 0.09343055 0.044461656
0000a0 48 f6 3d be f4 b1 00 be f7 e6 00 bd 2d 47 9a 3d
       -0.1855098 -0.12567884 -0.031470265 0.07533107
0000b0 e0 15 7a 3e c7 b2 2d 3e ea 48 0e be 3d 4f 0e 3e
       0.24422407 0.1696273 -0.13895002 0.13897415
0000c0 21 8e bb 3d 05 c8 a1 bd f2 c7 a7 3b fe 42 dc bc
       0.09157968 -0.07899479 0.005120271 -0.026887413
0000d0 23 e2 0d 3e ae 82 3c 3e 92 0e 42 3d 81 f0 75 bd
       0.13855796 0.18409225 0.047377177 -0.060043816
0000e0 3d 79 31 be 54 0d 80 be be 7f d0 3d 25 8c c5 3d
       -0.17331405 -0.2501017 0.10180615 0.09645871
0000f0 c4 b4 ae 3e 2f ee c9 be 12 4a 27 3e d8 7e ad 3d
       0.34122288 -0.39439532 0.1633685 0.08471459
000100 3f f9 72 bd 1e aa 9e 3c 40 0e fa bc 26 1b 89 bd
       -0.05931973 0.019368228 -0.030524373 -0.06694631
000110 36 2b 2b 3b d6 f8 41 be 60 6b 24 be a5 02 61 bd
       0.0026118285 -0.1894258 -0.16056585 -0.054934163
000120 f4 f7 0b 3d 01 5b af 3d 3b 70 d1 3d be e7 b0 3d
       0.034172013 0.085622795 0.102264844 0.08637951
000130 ed 6f 48 3e 4b 15 5e bf 39 77 46 be cc 51 3d bd
       0.19573946 -0.8675124 -0.19381417 -0.046220586
000140 9f c6 62 bd bb ad 86 3d 88 02 b0 3c 4e 2e 03 3e
       -0.0553652 0.06576105 0.021485582 0.12810633
000150 88 0d ff 3d f2 ea 11 3e ed 54 33 be ec ec 7f 3e
       0.12453753 0.14249781 -0.17512865 0.24992722
000160 6c ce 2d 3e 8e 46 5b 3e 45 0c eb 3c 30 97 08 be
       0.16973275 0.21413633 0.028692374 -0.13338923
000170 e1 4f e3 be b0 93 70 bf 0c 4b 49 3d e3 03 13 3e
       -0.4439688 -0.93975353 0.049143836 0.14356951
000180 34 40 1d be cc 8b c8 3d e8 37 15 be 7a e3 88 bd
       -0.15356523 0.09792289 -0.14572108 -0.06684013
000190 4f 37 9d 3d 94 d6 0b bd 0c 82 d2 3c 37 96 8c 3b
       0.07676565 -0.034140185 0.025696777 0.004290368
0001a0 e5 38 d2 3d 55 52 ef bc 15 65 47 be 7d 58 03 bc
       0.10264758 -0.029214064 -0.19472153 -0.008016703
0001b0 c3 f0 54 3e a3 19 43 be 2b 4b 2c 3e a9 30 c5 bd
       0.20794968 -0.19052748 0.1682555 -0.09628422
0001c0 0d 2a ef 3d 40 36 b4 bd b8 aa 6d bd 3e 7a 95 3d
       0.116779424 -0.0879941 -0.05802414 0.072987065
0001d0 33 96 51 3d cc 3b 14 bd 92 c0 6c 3d ca df 78 bc
       0.05116863 -0.03618984 0.057800837 -0.015190074
0001e0 e7 5e 06 3e 79 e3 d3 bd 8d 55 b9 bd 0f b3 78 3e
       0.1312214 -0.10346121 -0.09049521 0.24287055
0001f0 26 65 e5 be 9c ae a4 be bd e8 81 3e 98 0e 5d 3c
       -0.44803733 -0.32164466 0.25372878 0.013492249
000200 04 22 2f 3d db ca 0d 3e 28 c5 0c 3e dd 88 1a be
       0.04275705 0.13846914 0.13747084 -0.15091272
000210 0a 71 3b 3e 78 ab 01 3e 93 b2 be 3b 13 48 62 3d
       0.1830484 0.12663066 0.0058196275 0.055244517
000220 d7 27 a0 bd 97 44 02 be 2e 18 95 bd ac f2 35 bb
       -0.07820099 -0.12721477 -0.072800025 -0.0027763052
000230 2a cc c9 3b 10 7c 9c 3e 23 a6 98 bb 0f f1 ad bd
       0.0061583715 0.30563402 -0.004658477 -0.08493244
000240 9c cd a2 3c 4c 15 8f bd 83 e8 88 bd 65 37 d1 3d
       0.019873433 -0.06986484 -0.06684973 0.10215644
000250 a2 fa 18 be d6 44 11 be d6 a7 3a bc 5d 68 70 3d
       -0.14939359 -0.14186415 -0.011392554 0.05869328
000260 c9 35 5b 3d cf af 10 3d ea 00 e4 bb e9 84 e8 3d
       0.05351809 0.035323914 -0.006958117 0.113534756
000270 43 bc e4 3c c4 e1 5b 3e e9 ef 25 bd a0 31 ec 3d
       0.027921801 0.21472842 -0.040512 0.11532903
000280 4e 56 e6 bd a7 69 b9 3c c9 71 ab 3c fc 18 eb 3d
       -0.1124693 0.022633387 0.02092828 0.11479375
000290 00 6d 98 bd ff 96 61 bd 7e 71 26 be 57 60 e0 3a
       -0.07442665 -0.05507564 -0.16254231 0.0017118555
0002a0 77 3f 00 be b1 49 0e 3d 65 aa 13 3e 9d b3 f5 3d
       -0.1252421 0.034738246 0.14420469 0.11997149
0002b0 32 dc 99 bd ec f5 d2 bd 21 c1 ae bd ad f8 5a be
       -0.07512702 -0.10300812 -0.0853293 -0.21383925
0002c0 fa 24 02 3e 97 6a b2 bc 50 f6 9b bd f6 67 05 bd
       0.12709418 -0.021779342 -0.0761534 -0.032569848
0002d0 b9 ec 03 3e 04 9d db 3d 88 37 24 be 5c 16 c9 3c
       0.12883271 0.10723308 -0.16036808 0.024546795
0002e0 a5 da 00 be d6 cc 20 be 01 d5 0b bd 70 99 61 3d
       -0.12583406 -0.15703139 -0.034138683 0.05507797
0002f0 d1 37 94 be e3 17 3e bf 87 3c 03 3e 96 4e 2e be
       -0.28948835 -0.742552 0.12816058 -0.17022166
000300 27 7c 8d 3c ce 62 b2 bd 87 fd a9 3d 5c 68 ed bd
       0.017271115 -0.08710252 0.0830031 -0.115921706
000310 9c 46 04 be bd e4 1d be e7 71 d2 3a dc 7c 8e bd
       -0.1291756 -0.15419288 0.0016055674 -0.06957409
000320 cd 98 1a bd 19 44 29 be c3 90 89 bd 8c 22 20 3e
       -0.03774338 -0.16529883 -0.06717064 0.15638179
000330 9f b2 67 3d 37 b7 67 be 66 1a 02 be e0 f3 37 3d
       0.05656683 -0.22628485 -0.12705383 0.04491031
000340 41 ab e6 bd c1 11 d6 3d f9 27 7c bd 30 e6 11 3d
       -0.11263133 0.10452605 -0.06156156 0.035619915
000350 17 16 e6 bd 53 9b 43 3e f2 8a 47 be 89 e9 7a 3b
       -0.11234682 0.1910222 -0.19486597 0.003828617
000360 c6 1d 43 3e 64 7c 9f bd 98 3a 3f be ac 1e e8 3e
       0.19054326 -0.077873975 -0.18674695 0.453359
000370 4a 9c bd 3c 1c 49 27 bf 7e 46 0d 3e 36 cb 4e be
       0.023145813 -0.6534593 0.13796422 -0.20194706
000380 9b 47 ce bd 0c 3a a3 3d 9f 64 9d bd 74 8d 92 bc
       -0.100722514 0.07970056 -0.076852076 -0.017889716
000390 15 87 ef 3c a9 a1 1d be 62 a2 4d bd 9b 8f a1 bd
       0.029239217 -0.153937 -0.05020369 -0.07888719
0003a0 d3 85 4c be 48 8b 18 3d 0b 8a aa bb 37 32 24 3e
       -0.19972925 0.037242204 -0.0052044443 0.1603478
0003b0 44 f8 1f bd c4 ff 66 3d 4c 0b 8c 3d 7a 91 9d 3d
       -0.039055124 0.05639626 0.06838092 0.07693763
0003c0 23 38 70 3c 27 7a de bd c7 73 97 bc bc 63 53 bd
       0.014661822 -0.108631425 -0.018487824 -0.051608786
0003d0 b7 1d 48 3a 19 7c f4 3d 87 ed 1e be ed f8 a3 3c
       0.00076338224 0.11937732 -0.15520297 0.020016158
0003e0 4f 98 4d 3e e3 06 55 bd 08 b0 8c 3d a4 c2 53 3e
       0.20077632 -0.05200852 0.06869513 0.20679718
0003f0 cd a7 e6 3e f1 84 eb be 4a b1 0e bd 9e f7 09 3e
       0.45049897 -0.45999864 -0.034837045 0.13473365

fr1.bias f4 [50]
000000 9b df 1e 3e b7 69 11 3e 75 58 bc 3d 97 6e b4 bd
       0.15514986 0.14200483 0.09196559 -0.08810156
000010 0b a5 28 3d e9 f3 2e be 94 f8 c0 bd 9b ec 89 3c
       0.041173022 -0.17085232 -0.094224125 0.016836455
000020 48 07 05 3d 48 21 05 3e a7 79 09 3d bf 08 75 3d
       0.032477647 0.13000977 0.033563282 0.059822794
000030 45 3f 88 3b 82 2a 6e bd 71 a1 03 be ef f9 95 bd
       0.004157933 -0.058146007 -0.12854554 -0.07323062
000040 4e 26 e7 bd 19 71 c3 3d f1 b7 e4 3d 17 ba a6 bd
       -0.11286603 0.09543056 0.111678965 -0.081409626
000050 3c a1 ca 3d 3f 5f d9 bd 2f 0c ba bd a3 0f 66 3d
       0.09894034 -0.1061387 -0.09084355 0.056167256
000060 e4 70 6d bd 82 97 4b bd 5a 7d 74 bd 13 c3 21 3e
       -0.05796899 -0.049705036 -0.059689857 0.15797071
000070 70 ba 3c bd 92 1c 13 be b7 1a ca 3c c7 75 c8 3d
       -0.04607624 -0.14366367 0.024670942 0.09788089
000080 21 df 22 be 7b ed 0b bd a9 2f 0a be 7e 83 14 bd
       -0.1590543 -0.034162026 -0.13494743 -0.036258213
000090 a7 86 be bd c4 0d e8 bd fe 03 d6 3d 3b 15 08 3d
       -0.09303027 -0.113307506 0.1044998 0.033223372
0000a0 06 3e e7 bc e7 db 17 3d 0d 77 0d 3e e2 1b 6e 3d
       -0.028227817 0.03707495 0.13814946 0.05813206
0000b0 10 e7 e2 3d f6 de a2 bd 41 ae 3e be e4 7e 18 3e
       0.11079228 -0.07952683 -0.1862116 0.14892155
0000c0 ad 0b eb bd c5 29 22 3e
       -0.11476836 0.15836246

fr2.weight f4 [25, 50]
000000 fd 11 03 3c af 0b a4 3d 1c a5 00 3e 45 65 97 3d
       0.007999894 0.08010041 0.12562984 0.073923625
000010 02 f4 55 3d f1 b9 27 3c ef 93 6e bd 83 50 e8 3d
       0.052234657 0.010237203 -0.05824655 0.113434814
000020 44 28 02 3e 5d a6 d4 bc e3 92 da 3c f3 f5 83 3d
       0.12710673 -0.025958234 0.02668137 0.064433955
000030 5f a4 68 bd ea 0b fb 3d d2 db c8 3c 6f 12 df bd
       -0.05679738 0.12258132 0.024518881 -0.10892188
000040 4d 62 2e bd 17 b4 a0 3d fa bc e5 bd 94 ea a2 bd
       -0.042574216 0.078468494 -0.11217685 -0.079548985
000050 24 30 ff 3d ef 06 81 bc 3c 03 bf bd db 10 85 bd
       0.12460354 -0.015750377 -0.09326789 -0.064973556
000060 21 f8 d9 bd 93 fb e8 bd dd 37 bb bb c0 45 89 3d
       -0.1064303 -0.11376109 -0.0057134465 0.06702757
000070 80 5a d3 bd b5 86 e8 3c ca 09 ea 3d 7f fa d6 bd
       -0.10319996 0.028384546 0.11427648 -0.10496997
000080 a4 1a 87 bd 0e e0 67 bd 66 38 d0 bd 7a 6c 81 bd
       -0.06596878 -0.05661016 -0.10167007 -0.063195184
000090 d6 bc 88 3c 55 98 bf bd 7f 8f 33 bd c1 c1 00 be
       0.016691606 -0.09355227 -0.04383802 -0.12573911
0000a0 d6 45 44 3b 18 98 7e 3d de 6c 4f 3d 49 d9 11 be
       0.0029948852 0.062156767 0.050640933 -0.14243044
0000b0 f3 d8 44 3d e7 73 00 bd 56 be 13 bd ec 33 f4 bd
       0.04805846 -0.031360533 -0.03607019 -0.11923966
0000c0 f6 57 b2 3d ed 55 87 bc ab 26 81 bc ee bb 0b be
       0.087081835 -0.016520465 -0.015765509 -0.13645908
0000d0 92 48 27 bd cf 0f d4 bd 43 74 c0 bc 5d 1c f9 3a
       -0.040840693 -0.10354578 -0.023492938 0.0019005645
0000e0 cd 11 17 3c 56 e0 d9 bd e4 66 e2 b9 84 d3 09 3e
       0.009220553 -0.10638492 -0.0004318274 0.13459593
0000f0 28 5a ef bd 89 6e cd bd 0f d0 26 bc 37 f5 da 3d
       -0.11687118 -0.100308485 -0.010181441 0.10691302
000100 b0 71 91 bd 22 74 96 bd c2 80 af 3d 17 c7 14 3d
       -0.07101762 -0.07346369 0.085694805 0.03632268
000110 f9 5f b5 3c 3c 94 b1 bd 80 43 1e bc fd 26 15 bd
       0.02214049 -0.086708516 -0.009659648 -0.036414135
000120 bb 53 d3 3d 79 35 44 3d d2 c3 a7 3d 6c d9 95 3d
       0.10318705 0.047902558 0.08191647 0.073168606
000130 45 1f 5b bd 7e 2a 89 bd 31 7e 9b 3c 81 a6 82 bd
       -0.053496618 -0.06697558 0.018981071 -0.06379414
000140 d9 04 8d 3d 8d ca ba bd d1 0a ed 3c 94 e1 f0 3d
       0.0688569 -0.09120665 0.028935822 0.117617756
000150 58 eb ac 3d 55 05 a6 bd c9 73 23 bd 02 4f c8 3c
       0.08443326 -0.08106486 -0.039905343 0.024451736
000160 c3 65 f0 3d d9 52 c7 bd 1c d6 7b bd 1b 99 30 bb
       0.117381595 -0.09732599 -0.061483487 -0.0026946727
000170 fe cb 02 3e 40 83 da bd 8f ef d4 3a 60 e3 71 3d
       0.1277313 -0.10669565 0.001624571 0.059054732
000180 d1 2a 0b be da 7f d2 3d 54 44 bf 3d 57 42 bf bd
       -0.13590552 0.10278292 0.093392044 -0.09338825
000190 2d b4 9f 3d 26 67 5a 3d da 37 c8 bd e8 bd 0e 3d
       0.07798038 0.053321026 -0.09776278 0.034849077
0001a0 c1 3e 7c 3d de a3 8a bd 9b 55 a5 bd ab 13 bc 3c
       0.061583284 -0.067695364 -0.080729686 0.022958597
0001b0 cf 87 a0 bd 83 18 28 bd 88 b0 3d 3d f8 91 4f bd
       -0.078384034 -0.041039 0.04631093 -0.050676316
0001c0 cf 09 03 be fb c9 c1 3d 93 2f ae bd f9 e3 e5 bb
       -0.1279671 0.09462353 -0.08505168 -0.007015702
0001d0 84 ba 62 bb 3c 1b d3 bd 54 d4 b2 3c ac 28 cb bd
       -0.0034596035 -0.10307929 0.021829762 -0.09919867
0001e0 bd 32 10 3d fc e7 27 3c 30 62 ba bc 82 cb 03 3e
       0.035204638 0.0102481805 -0.022751898 0.12870601
0001f0 50 61 5a 3d 3a 88 06 be d1 67 04 3e ab 12 6b bd
       0.05331546 -0.13137904 0.12930228 -0.05739085
000200 97 89 04 be 82 72 06 3d 7d cc 01 3d 89 21 23 3d
       -0.12943111 0.032824047 0.031689156 0.039826903
000210 90 ec e2 3d ac 9d 3d 3d fc ab 03 be cc c3 9b 3d
       0.11080277 0.046292946 -0.12858576 0.07605705
000220 91 c3 aa bc dc c8 f9 bd 23 f7 98 3d f3 a7 81 3d
       -0.020845206 -0.12196514 0.074690126 0.06330862
000230 97 84 17 bd 68 8d c7 bc 11 c3 43 bb d4 07 92 3d
       -0.036991682 -0.02435942 -0.0029870907 0.07130399
000240 87 34 9d bd 16 4a 93 3d 50 2e fd 3d 08 78 b4 bc
       -0.076760344 0.07191865 0.12362349 -0.022029892
000250 de 6e 21 3d 38 cc de bd 92 58 e1 bd bc 2f 93 3d
       0.03941237 -0.108787954 -0.110032216 0.07186839
000260 2f a1 be 3d bc 4a 32 3d 1f 44 fd 3d f6 c7 fb bd
       0.09308087 0.043528304 0.12366509 -0.12293999
000270 57 e9 08 3d d4 d1 8d bd dc 39 f1 bd a0 24 7d 3d
       0.033425655 -0.06924787 -0.11778614 0.061802506
000280 6a bc ee bb d5 59 c0 3d 48 4b e1 3d f6 e7 83 bc
       -0.0072856443 0.09392134 0.11000687 -0.016101819
000290 b3 ef aa 3a 74 f7 b8 3c 2e 03 4b bb db 22 d2 3d
       0.0013041407 0.022578932 -0.0030977237 0.102605544
0002a0 5c 60 53 3d 92 35 c3 bc 92 72 12 be 0e 07 cc ba
       0.051605567 -0.023829255 -0.14301518 -0.0015566067
0002b0 7f d3 b0 3d 2e e3 5b 3d 1c ae 83 bd bf 53 c5 3d
       0.0863409 0.053683452 -0.06429693 0.09635114
0002c0 aa f6 a1 3d c9 d3 75 3d 98 c0 b0 bd 42 eb 91 bd
       0.079083756 0.060016427 -0.08630484 -0.0712495
0002d0 ff e9 81 bc d5 53 c0 3c b3 ba da 3d 52 00 b6 bd
       -0.015858648 0.023477474 0.10680141 -0.0888678
0002e0 25 77 1d 3d 7b 2b 8d bd c8 40 ce bd bc b2 20 bd
       0.038443703 -0.06893059 -0.1007095 -0.039232954
0002f0 54 e9 c9 bb ea bf fe bd fb 76 d5 bc 1a 29 57 bc
       -0.006161848 -0.124389485 -0.02605771 -0.013132358
000300 85 92 c0 3c 3f 01 05 bc e7 b4 90 3d ee c8 0e 3e
       0.023507366 -0.008117973 0.070657544 0.13943836
000310 46 42 75 3d 53 50 d6 3d 5d bc 0e 3e 68 09 f1 3d
       0.059877656 0.104645394 0.13939042 0.11769372
000320 f4 48 b8 3c ae 4e 70 bc 2a ea de bc 65 10 f9 bd
       0.022495724 -0.014667196 -0.027211268 -0.1216133
000330 43 a1 92 bd 66 40 3d bd 18 2e 79 bc e0 cb e6 bd
       -0.071596645 -0.046203993 -0.0152087435 -0.11269355
000340 6e 6a 14 be da b4 de bd 85 e7 79 bd 34 88 e4 3b
       -0.14493725 -0.108743384 -0.06101181 0.0069742445
000350 a9 cf 6f bc 6b 9d 79 3c 67 db c7 bd ca 9b f9 bd
       -0.014636912 0.015235285 -0.097586446 -0.121879175
000360 7e 3d 1b 3d d6 4a c5 bd c0 0b b0 3d 2a 45 10 3d
       0.03790044 -0.096334144 0.08595991 0.03522221
000370 e8 6e a0 bd 88 d8 1b 3d 4a cc ee 3d bc 71 03 3d
       -0.07833654 0.038048297 0.11660059 0.032090887
000380 09 9a 88 bd 11 ed 4c bd 86 24 6b 3d 02 d3 25 bd
       -0.06670005 -0.05003077 0.05740788 -0.040484436
000390 64 de 69 bd 9e 07 d0 bd 6f f5 07 be d7 be a4 bd
       -0.057096854 -0.10157703 -0.13277219 -0.08044212
0003a0 0c 9f 4f bd 88 70 8e 3d 60 d3 af 3c 4f af a4 bb
       -0.05068879 0.069550574 0.021463096 -0.005025781
0003b0 89 7e 56 bd 24 87 40 3d 64 02 c3 3c f1 81 ef bd
       -0.052366767 0.04700388 0.02380485 -0.11694706
0003c0 f1 a3 0d 3b 52 88 3b bc 11 ba 8f 3d 2d 4a 4c 3c
       0.002161261 -0.0114460755 0.07017911 0.012468857
0003d0 3b 16 53 3d 97 3b 05 3d 0d 68 a3 3d a7 ba 56 3d
       0.051534873 0.032527532 0.079788305 0.0524241
0003e0 09 e3 86 bd 10 07 59 3d 6f ad ed 3d ae 6d 00 bd
       -0.06586272 0.05298525 0.116053455 -0.0313546
0003f0 3a 2d d5 bd 4c 3b ff 3d c9 87 3a 3b 70 d3 8b 3d
       -0.10409017 0.12462482 0.0028462282 0.06827438

fr2.bias f4 [25]
000000 78 0b 50 3c 5d 43 b1 bd b9 44 ec 3d 04 51 6d 3d
       0.012698047 -0.08655427 0.11536545 0.05793859
000010 2c 94 9e 3d c6 85 d5 bc 80 ab d2 3d cc 4c 5e 3d
       0.07743105 -0.026064765 0.10286617 0.054272458
000020 d5 49 97 bd ab b6 d7 bc 0a 63 c8 3b a3 d5 02 39
       -0.07387129 -0.02633222 0.006115322 0.00012477352
000030 00 53 99 bb 7a 59 94 3d 9c ef d8 bd 65 b5 63 bc
       -0.004679084 0.07243629 -0.10592577 -0.013898228
000040 85 c5 09 3e e7 01 0c be ff 81 e9 3d df a5 89 3d
       0.13454254 -0.136726 0.11401748 0.067210905
000050 b1 a0 8e 3d 0d f6 b1 3d 33 9e a5 3c 82 08 b8 bd
       0.06964243 0.086895086 0.020217037 -0.08985998
000060 fa 9b aa bd
       -0.083305314

fr3.weight f4 [14, 25]
000000 31 c6 2a be 52 14 a8 bd e0 1a 1d be be 2b de bd
       -0.16677167 -0.08207001 -0.15342283 -0.10848187
000010 ac 08 14 bd 85 01 46 be 18 cc 62 3d 45 38 25 be
       -0.036141083 -0.19336517 0.05537042 -0.16134746
000020 93 19 89 bd e5 95 f3 3d 24 da 10 be 4a bb a0 3d
       -0.06694331 0.118938245 -0.14145714 0.078482226
000030 94 09 3e 3d d8 90 d5 3d 95 63 99 bd 45 bd b9 bc
       0.046395853 0.104280174 -0.07489697 -0.022673259
000040 93 f6 f0 3d eb 02 1f be 00 95 34 3e cf b0 ab 3c
       0.1176578 -0.15528457 0.17634964 0.020958332
000050 6a f7 d5 bd 18 8f c5 3d f9 59 12 3e 72 e2 3b bd
       -0.10447581 0.096464336 0.14292134 -0.045870252
000060 76 2a 1c 3e 51 d0 df 3d 9c fd d1 3d 9c 61 32 3e
       0.15250573 0.10928405 0.1025345 0.17420048
000070 d5 57 a6 bd f6 2f 00 bc 9f 74 2d be 7e 2a c6 bd
       -0.081222214 -0.007823935 -0.16939019 -0.096760735
000080 74 35 f4 3d 64 99 d2 bd 03 72 4b 3d e7 33 3a 3e
       0.11924258 -0.10283163 0.049669277 0.18183862
000090 1e 67 77 bd 94 99 81 3d ba e8 2c be 3f cf e5 3c
       -0.060401075 0.06328121 -0.16885653 0.028052924
0000a0 5b 5a 94 bc 9e bf 38 3e cd 4c 24 be 42 43 35 bc
       -0.018109491 0.18041846 -0.16044922 -0.011063399
0000b0 ce fe 1b 3d 8f 54 c6 3d 49 e0 29 3d 60 a2 f1 bd
       0.038084798 0.09684097 0.04147366 -0.11798549
0000c0 ab b2 d6 3d af 0f 8b bd f0 32 84 3d 68 34 84 bc
       0.10483297 -0.06790101 0.06455028 -0.01613827
0000d0 b2 51 ee 3d 2a 09 d1 bd e8 0a eb bd a7 db f3 bc
       0.11636676 -0.10206826 -0.114766896 -0.029767824
0000e0 21 1d d4 bd bc 05 be bd 16 3a 9a bd 0f ba ac 3d
       -0.103571184 -0.092784375 -0.0753061 0.08433925
0000f0 3d 61 20 3e 91 1c 04 3e be 40 cb 3d 9b 46 c3 bd
       0.15662093 0.12901522 0.09924458 -0.09534951
000100 06 a2 3f be 01 13 9d 3c d5 df dd bd 87 70 42 be
       -0.18714151 0.0191741 -0.10833708 -0.18988238
000110 bc 99 82 3d b3 c9 97 3d c9 e8 b7 3d 59 1b 38 be
       0.06376979 0.07411518 0.08979947 -0.17979182
000120 ec 9c d4 3c 18 a9 9b 3c e8 bf 5d 3d ba 16 43 3e
       0.025953732 0.019001529 0.054138094 0.19051638
000130 8b 51 1e 3e b2 9a 01 3e 98 14 cf bd fe 73 6a 3d
       0.15460794 0.12656668 -0.1011135 0.057239525
000140 26 56 9f bc 7e 81 e0 bd 6c e6 25 bd 58 ed f7 bd
       -0.019450258 -0.10962199 -0.04050295 -0.121058166
000150 e3 c9 d5 3d d6 80 18 bd 2e 3f 99 3d 87 ca 29 3d
       0.104388975 -0.037232243 0.07482754 0.04145291
000160 9c dc 76 3d 74 f1 9f ba 78 e0 e4 3d a6 2c d5 3c
       0.060268983 -0.0012202696 0.111756265 0.026022267
000170 ab 3e 1f be b9 65 23 bd 3f 0c fb bc ea b4 2d bd
       -0.1555125 -0.039891932 -0.030645488 -0.04240886
000180 9d 78 b2 3d e4 3b 01 be b3 c3 02 3e 31 5c 99 3d
       0.087144114 -0.12620503 0.12769966 0.07488287
000190 85 a2 92 bd 3e 94 25 bd f2 c1 28 3c 7b e1 3c be
       -0.071599044 -0.040424578 0.010300146 -0.18445389
0001a0 e6 2a 40 3e 20 62 d4 bc 18 ef 95 3c 04 12 cd bd
       0.18766364 -0.025925696 0.018302485 -0.10013202
0001b0 23 70 28 3d a3 aa 87 3d f3 99 12 be 19 1b 98 3d
       0.041122567 0.06624343 -0.1431654 0.074270435
0001c0 62 e3 cb 3d ff 0e d0 3d 0c 01 46 3e f4 b8 3b 3d
       0.09955479 0.1015911 0.19336337 0.045830682
0001d0 bf 83 19 be b3 7d 17 3e bf 81 af 3d 88 02 34 be
       -0.14991663 0.14794044 0.08569669 -0.1757909
0001e0 9b 65 ab 3d c1 ec 80 3d 11 aa 03 be 92 18 02 be
       0.08368989 0.06295157 -0.12857844 -0.12704685
0001f0 3a 33 b3 3d 1d db 27 3e d3 57 51 3d d1 fa e1 3d
       0.08750005 0.16392179 0.051109146 0.110341676
000200 be b2 dd 3a ae aa a2 bc fd a9 c9 3d 63 ed ad bd
       0.0016914231 -0.019856777 0.09846876 -0.084925435
000210 59 77 93 3d 61 b2 8d 3d b9 a1 03 be 09 a0 89 bc
       0.07200498 0.06918789 -0.12854661 -0.016799944
000220 19 5a f6 bd 9b 67 8f bd a6 ee c8 bd 98 9c 19 3e
       -0.120289035 -0.07002183 -0.098111436 0.15001142
000230 3d 19 97 bd e4 ec a2 3c bc c2 1b 3e d3 37 64 bd
       -0.07377861 0.019888349 0.15211004 -0.0557173
000240 93 d6 6b bc dd 92 32 be 69 06 67 3d 2e d8 b8 3d
       -0.01439442 -0.17438836 0.056402598 0.09025608
000250 d1 31 27 be fb 99 f7 bc 5a 22 cd 3d 34 30 2f be
       -0.16327597 -0.03022479 0.10016318 -0.17108232
000260 49 6f 25 be 4b cb 08 3e 48 52 b9 bd db 88 bc bc
       -0.16155733 0.133588 -0.09048897 -0.023014477
000270 74 4a 20 be 40 86 4d be ad c9 96 bd 66 dc 5e be
       -0.15653402 -0.20070744 -0.07362685 -0.21763763
000280 3d b5 99 bd 58 66 8e bd a3 c4 1b 3e 1a 42 6d bd
       -0.075052716 -0.06953114 0.1521173 -0.057924367
000290 29 40 f1 bd 13 27 c1 bd a0 b6 a3 3c 52 2b f9 bd
       -0.11779816 -0.09431281 0.019984543 -0.12166466
0002a0 68 36 1a 3e d9 58 90 3c bd aa 28 be 80 c6 b4 bd
       0.15059817 0.01762049 -0.16471381 -0.08826923
0002b0 bf 2e 0e be 1a ec 4b be 37 72 35 be 21 04 01 3e
       -0.1388502 -0.19914284 -0.17719351 0.12599231
0002c0 dd 84 83 bb 79 6e 19 bd 90 62 11 3e 5b ed 3b be
       -0.0040136413 -0.03745887 0.14197755 -0.18352263
0002d0 37 40 9e bc 8f c2 08 3d 79 ae 10 3d ec 69 33 be
       -0.01931773 0.03338867 0.03532264 -0.17520875
0002e0 f5 cd 00 be 4c 2f 1e be 27 2b cd 3d 20 c1 6b bd
       -0.12578566 -0.1544773 0.10017996 -0.057557225
0002f0 cc 00 23 bd dd ac eb bd e7 57 d4 bd 2e 7c c7 3d
       -0.03979568 -0.115075804 -0.103683285 0.09740482
000300 98 93 33 3c 03 7d 2f bd 92 b6 b8 bd e3 02 0e 3e
       0.010960482 -0.04284383 -0.090191975 0.13868289
000310 fd 9f df 3d c9 59 ac bd b9 6d f9 bd 40 d0 24 3e
       0.10919187 -0.08415563 -0.12179131 0.16095066
000320 3f 7f 99 3d c7 4a c3 bd d0 1d 8e bd 57 b0 32 3e
       0.074949734 -0.09535747 -0.0693928 0.17450081
000330 06 a7 f1 bd b0 36 96 3d 8c dc 1e bd 44 d3 f1 3d
       -0.11799435 0.073346496 -0.03878455 0.11807874
000340 e9 c6 03 be 42 87 fd bb f6 4c 65 bd cb 4d 05 be
       -0.12868847 -0.0077370713 -0.0559816 -0.13017957
000350 57 29 61 3d b0 44 4e be 9c 55 b2 3d 79 7d e8 bd
       0.054971065 -0.2014339 0.08707735 -0.11352057
000360 1c f8 4e be 81 30 c4 bd 62 1b af 3b 61 9f 02 bd
       -0.20211834 -0.09579564 0.0053438405 -0.031890277
000370 cb 99 be 3d fa c9 93 bd 62 cb ba bb 8c 74 10 bc
       0.093066774 -0.07216258 -0.0057005147 -0.008816849
000380 3f 82 1e 3d b5 2d 35 3d d5 50 04 be 91 7f 24 be
       0.03869843 0.044233043 -0.1292146 -0.16064288
000390 03 6a b2 bd 54 e1 32 3e aa d7 2b be 12 04 1d be
       -0.087116264 0.17468768 -0.16781488 -0.15333584
0003a0 f9 88 11 be c4 55 d1 3d dc 0d 25 3d 2a fa b7 bd
       -0.14212407 0.102214366 0.04029642 -0.08983262
0003b0 31 d2 a0 bb d5 62 c8 bd f4 cb 9e 3b de ab 54 bd
       -0.0049078693 -0.09784476 0.0048460905 -0.051921718
0003c0 37 17 d7 bd ff dc e2 bd 32 c7 9e 3d b4 ee 4c bd
       -0.10502475 -0.11077308 0.07752837 -0.050032333
0003d0 84 63 aa 3d b3 e0 15 be 22 6e 1a be f5 03 bf 3d
       0.08319762 -0.14636497 -0.15081075 0.093269266
0003e0 b1 ee 46 3d 08 5c c0 3d d1 92 47 3d 11 8c 45 bd
       0.048567478 0.093925536 0.048724 -0.04822928
0003f0 8a 04 07 3e 28 d1 8a bb 02 5c cd bc 21 78 f2 bd
       0.13185325 -0.004236359 -0.025068287 -0.11839319

fr3.bias f4 [14]
000000 d8 c7 ca 3d 0f eb 86 3d 42 03 33 3d 75 82 71 3d
       0.099013984 0.065878026 0.04370428 0.058962304
000010 a8 63 27 bd 3e 0e 41 be c2 30 d7 bd 06 92 37 3e
       -0.040866524 -0.18853089 -0.10507347 0.17926797
000020 71 a4 0a 3b 82 56 1d 3e 9f 2e 7e 3d 4a 11 8f bd
       0.0021155144 0.15365031 0.06205618 -0.069857195
000030 a6 4c 03 be 91 a5 ed bd
       -0.12822208 -0.11603845

fo1.weight f4 [50, 30]
000000 6e 4e 59 bd 24 f1 23 3d 2b 5d 29 be 67 d6 2d 3e
       -0.053053312 0.04002489 -0.16539447 0.16976319
000010 82 a3 0a bd fd 44 96 3d a3 a5 83 3d a4 13 e0 3d
       -0.03384734 0.07337377 0.06428077 0.10941246
000020 00 95 34 3e 5d 7b 2d be a1 6d 6d be fe fb d8 bd
       0.17634964 -0.1694159 -0.23186351 -0.10594939
000030 37 16 30 3e 1e 48 59 3e c2 26 18 bd 37 84 0a be
       0.17195974 0.21218917 -0.037146337 -0.13526998
000040 cc 89 21 be 93 34 1d be 61 7a bc 3d 3e a6 f2 bd
       -0.15775222 -0.15352087 0.092030294 -0.118481144
000050 4d bb b7 bd 3e 4d e6 3d 2b 0d d7 bd c8 7c 14 be
       -0.08971272 0.112452015 -0.105005585 -0.14500725
000060 c5 f4 be 3d 6a 43 b8 bd 27 f8 17 3e c0 b0 d9 bd
       0.0932403 -0.08997233 0.14840756 -0.106294155
000070 7c 14 8c bd c9 58 84 3d 4c 36 ec bd 4e 47 c2 3d
       -0.068398446 0.06462247 -0.11533794 0.094862565
000080 14 ee 86 bd c4 0d 0c bc 57 79 30 be 43 27 02 be
       -0.065883785 -0.008548204 -0.17233787 -0.1271029
000090 91 a5 c6 3c 55 58 8c bd af b0 8c bc a5 f3 0f be
       0.02424887 -0.068527855 -0.017174093 -0.14057787
0000a0 75 c8 05 bd a6 2a 6b 3d 9c f7 7c 3e 1b ee 8c 3d
       -0.032661874 0.05741372 0.2470383 0.068813525
0000b0 2a a1 09 3e ce 86 56 3d 89 d6 c9 3d 37 9c 79 bd
       0.13440385 0.052374654 0.098553725 -0.060939994
0000c0 08 a9 fd 3d 32 77 3d 3e b4 da 70 be 7f d3 e7 3c
       0.12385756 0.185025 -0.23520929 0.028299091
0000d0 49 a8 ad 3d 08 0d 76 bd b6 b6 30 be db 00 ba bd
       0.084793635 -0.06007102 -0.17257199 -0.090821944
0000e0 37 0e 54 3d 25 fd 3b 3d 3d bf 06 bc b7 71 43 3c
       0.05177137 0.045895714 -0.008224306 0.011928967
0000f0 c1 d9 b8 bd d3 b4 a9 bd de ec 14 3e a9 7f 46 3e
       -0.09025908 -0.082864426 0.14543483 0.19384636
000100 2f c2 1c 3e c4 bc dd bd a3 f2 2a 3e ba ab c9 3d
       0.1530845 -0.1082702 0.16694121 0.09847207
000110 08 84 f0 bd 45 6e 03 3d da 5f ac bd ee e7 77 be
       -0.11743933 0.032087583 -0.0841672 -0.24209568
000120 6c 1b 60 3d 2b 40 90 3e 8a 37 b3 bd c9 aa 4b be
       0.05471365 0.28173956 -0.087508276 -0.19889368
000130 e6 e9 37 be 71 53 04 3e 13 60 a7 3d ba 7a e1 3d
       -0.17960319 0.12922455 0.081726216 0.11009736
000140 14 05 b2 3c 66 10 90 bd 0a 0d 25 3d fd 59 4c bd
       0.021730937 -0.07034378 0.04029564 -0.049890507
000150 4c 98 da 3d bf 8a c0 bd 23 8c e1 3d a3 9a 19 be
       0.106735796 -0.09401464 0.11013057 -0.15000395
000160 ca f9 c0 3c 30 8e 28 3e a3 d2 b1 bd 2e 22 e0 bd
       0.023556609 0.1646049 -0.08682754 -0.10944019
000170 6e f5 d4 bd bd d1 25 3d 02 1b a6 bd 29 f5 1b 3d
       -0.103983745 0.040483225 -0.0811062 0.0380756
000180 c7 de ad 3d 84 8c 3c 3c 19 66 ae bc 4b d5 8e bd
       0.08489757 0.011508111 -0.021288918 -0.06974276
000190 d2 e5 13 be 60 b0 5b 3c 72 0f c7 bd da e1 66 bb
       -0.14443138 0.01340875 -0.09719743 -0.0035229833
0001a0 e9 e4 37 bd d2 15 7b bd aa e8 91 bc d4 5b 4c 3c
       -0.04489604 -0.061300106 -0.017811138 0.012473065
0001b0 9b ce d3 bd 7e cb 37 3e 81 c8 00 3e d7 20 b5 3d
       -0.10342141 0.1794872 0.12576486 0.08844154
0001c0 3d 87 ab bd 0b b5 60 be fb 0c 20 bd ef 81 1f 3e
       -0.08375404 -0.21944062 -0.03907488 0.1557691
0001d0 ff c4 97 bd fd 25 a2 3d 16 a2 38 3e d5 f0 24 3e
       -0.07410621 0.07917402 0.18030581 0.16107495
0001e0 87 65 d4 3b a1 92 0b 3e 9e 89 a7 3d a2 73 bb bd
       0.0064818296 0.13630153 0.08180545 -0.091529146
0001f0 7e 31 a0 3b 6c 1f 00 3d 12 8c af bd e5 07 07 be
       0.0048887124 0.031279966 -0.08571638 -0.13186605
000200 01 7a 00 be 43 dc a3 bc 25 bd 3a 3e 25 8e ff bd
       -0.12546541 -0.02000249 0.18236215 -0.12478284
000210 f8 64 c9 bd f3 68 00 bd fc 66 66 3d ed e2 9d 3c
       -0.098337114 -0.031350087 0.056250557 0.019273246
000220 ad 06 2f 3e e1 d9 0e be 4a 83 ba 3d a7 61 61 3e
       0.1709239 -0.13950302 0.09107073 0.22009908
000230 fe 47 b4 bd 55 56 1d bd 8d 96 7c 3d 0b c3 c0 bb
       -0.08802794 -0.03841241 0.061667014 -0.005882626
000240 97 68 1b bb 01 6d 47 be 08 8b 50 3d f6 d9 6d 3d
       -0.0023713463 -0.19475175 0.05091384 0.058069192
000250 32 59 dd bc da 71 05 3e e6 09 03 bd 3b bb e9 bd
       -0.02702007 0.13031712 -0.03199186 -0.114126645
000260 ad 80 1f 3d cb 41 14 be a5 02 da bd 7f 91 c5 3d
       0.038941074 -0.14478223 -0.10645036 0.09646892
000270 a0 69 31 be 9f 21 d7 bd 8a 24 f5 3d ef eb 53 3d
       -0.17325449 -0.105044596 0.1196986 0.051738676
000280 05 70 11 be 61 7c e2 bd 1d ab 06 bd 33 1d 18 be
       -0.14202888 -0.1105888 -0.03287803 -0.14854889
000290 02 7a 49 3d 28 bf 34 bd f7 09 27 bd 17 3e 85 3c
       0.04918862 -0.044127613 -0.040780988 0.016264958
0002a0 73 8f 67 bd cb db 07 3e 6e b7 e3 3d 92 96 f7 3d
       -0.05653329 0.13267438 0.11118971 0.12089266
0002b0 5e e8 90 3d 53 bb 2c bd f7 dd 3d 3d 23 67 8a 3d
       0.070755705 -0.042170834 0.04635426 0.06757953
0002c0 ee cc 1a 3e ca 0f 17 3e 4d 4d 8b bc e8 5b 0b 3d
       0.15117237 0.14752117 -0.017004633 0.034023196
0002d0 af 35 8b bd c6 b4 5a bd d5 3c f8 bd 8a ac 62 3c
       -0.06797349 -0.053395055 -0.12120978 0.013835082
0002e0 50 02 bd bd 34 a0 2f 3e 20 52 d3 3d 2c f9 0c be
       -0.09228957 0.17150956 0.103183985 -0.13766927
0002f0 bf 2e 02 be 09 4c 60 bc 03 40 fb bd fc cf 24 be
       -0.12713145 -0.013690003 -0.12268069 -0.16094965
000300 f9 da 98 be 27 00 55 3d 3a 5e 25 3d 05 2f 52 bb
       -0.29854563 0.0520021 0.040373065 -0.0032071483
000310 23 c3 aa bd 93 64 09 3d 60 77 c3 3b c7 2e 93 3d
       -0.083380006 0.03354318 0.0059651583 0.071866564
000320 d1 53 07 be 63 ce 56 3d 33 d9 06 be 4d 8b 05 3c
       -0.13215567 0.05244292 -0.13168792 0.008150888
000330 bd 33 f1 3d 6e 72 ab bd c2 c1 ad 3d 7b a0 22 3e
       0.117774464 -0.08371435 0.08484222 0.15881531
000340 50 37 56 3e 69 12 19 be db 4b e1 3d 22 be 32 3e
       0.20919538 -0.14948429 0.110007964 0.17455342
000350 12 1d c6 3d a2 d5 6f 3d 54 dd 60 bd 3e 12 97 3d
       0.096735135 0.058553346 -0.054898575 0.07376526
000360 9b 82 5c 3d be d7 4e bc 81 14 1b 3e 52 82 f6 bd
       0.053835493 -0.012624679 0.1514454 -0.120365754
000370 d1 1f 36 be c4 b8 bc 3d e4 a6 8d bd ff 4f 37 be
       -0.17785574 0.09214929 -0.069165975 -0.1790161
000380 f3 85 b4 bd 55 12 1e 3e ee 57 a5 bd 77 94 75 bc
       -0.08814611 0.1543668 -0.08073412 -0.01498901
000390 90 14 64 bd cd 2f 3e 3e 83 69 d7 bd da 79 1c be
       -0.055683672 0.18572922 -0.10518172 -0.15280858
0003a0 cf 80 e6 3d d1 9f 09 3e 2f 2c fd bd f1 8b e3 bd
       0.11255037 0.13439871 -0.12361943 -0.11110676
0003b0 3b 65 fc bc d3 ea 0b be d5 4a 7d bd 72 06 34 be
       -0.03080999 -0.13663797 -0.061838944 -0.17580584
0003c0 08 6d 91 bd bb e1 9b 3d 8d 7d 1a be ec a3 52 3d
       -0.07100874 0.07611414 -0.15086956 0.05142586
0003d0 65 31 3f 3e 8b 78 04 3e 27 7a be 3d 31 e4 ed bd
       0.18671186 0.12936608 0.093006425 -0.1161579
0003e0 fc 35 3f 3e 1d 27 de bd 0e 73 c7 3b 44 12 9a 3d
       0.18672937 -0.10847304 0.0060867136 0.07523015
0003f0 1c d6 94 be c1 f2 98 3e b0 b4 15 be ef 0e 33 be
       -0.29069602 0.29872707 -0.14619708 -0.17486165

fo1.bias f4 [50]
000000 d1 59 c1 3d 33 18 cb bd 21 0f b3 3d d6 90 9c 3d
       0.09440959 -0.09916725 0.0874312 0.07644813
000010 cf 18 96 3d 2a e2 04 3d a6 51 c3 3d 46 f0 49 3e
       0.073289506 0.03244225 0.095370576 0.19720563
000020 a0 36 1f be ba cd 40 bd f6 29 12 3e ba b4 36 bd
       -0.15548182 -0.047071196 0.1427382 -0.044605948
000030 00 be 65 be c1 31 c5 3d b1 70 0b 3e 39 1c a1 bd
       -0.2243576 0.096286304 0.13617207 -0.07866711
000040 20 24 80 be c2 79 0e 3e df 8b 90 bd 81 cf da 3d
       -0.2502756 0.13913634 -0.07057928 0.106841095
000050 71 5c db bd 0b fb 0c 3e ed d3 42 be 7b e1 32 3c
       -0.10710991 0.1376764 -0.19026156 0.010918017
000060 fd 20 ae bd 81 02 83 3d c2 e5 38 be 43 d0 98 3d
       -0.08502386 0.06396962 -0.18056396 0.07461598
000070 13 bd 91 3d cc 1e 0b 3e 64 a8 8a 3c a4 96 98 bd
       0.07116141 0.13585967 0.016925998 -0.074506074
000080 77 9b 60 3d 47 2e 80 bd 45 a8 51 be 4b 33 06 be
       0.054835763 -0.06258827 -0.20474346 -0.13105504
000090 78 1f ad 3d ea d8 bf 3d 07 3f 21 be 9e a6 0a 3d
       0.08453268 0.09367545 -0.157467 0.033850305
0000a0 9d c0 f7 bd 00 c0 42 be b0 ee 99 3d 3d 2e 06 bd
       -0.12097285 -0.19018555 0.07516229 -0.03275894
0000b0 58 93 8d 3d f7 5d 0d 3c 9c f0 5c 3d 77 ef f8 bd
       0.06912869 0.00862836 0.0539404 -0.12155049
0000c0 5d ca 30 be ef 3e 71 3c
       -0.17264695 0.014724477

fo2.weight f4 [25, 50]
000000 81 d8 ab bd 37 ee 11 bd 0b 47 15 bc d0 29 08 bd
       -0.08390904 -0.03562757 -0.009111176 -0.033243
000010 1a d4 d1 3c a3 50 84 bd 7f 94 e7 3d 13 dd 2f 3c
       0.025613833 -0.06460693 0.1130762 0.010733861
000020 11 0e 06 3d 2e 8e 19 bd d0 40 98 bd a9 5b ff 3d
       0.03272826 -0.03748911 -0.07434237 0.12468655
000030 81 db e4 3d c9 84 0f be fe e5 82 3b 59 f3 89 3d
       0.111746795 -0.14015497 0.0039947024 0.06735868
000040 43 92 0c 3e a5 2a dd bd 4b e8 a6 bd 4a 94 2d 3c
       0.1372767 -0.107991494 -0.08149775 0.010594437
000050 e3 88 05 3e 92 76 5a 3d 9b 48 69 3d 3a 91 25 bd
       0.130405 0.053335734 0.056954008 -0.040421702
000060 74 86 15 bd 96 7e a4 bd a3 85 ce 3d a3 15 be bc
       -0.036505178 -0.08031957 0.10084083 -0.023203677
000070 9b 01 e7 3c 25 14 af bd bb da 51 bc 47 6d 43 3d
       0.028199008 -0.08548764 -0.012808497 0.047711637
000080 61 ec 06 3c ac 53 e5 3d 65 26 0e bd 63 c4 eb 3d
       0.008235068 0.111976 -0.034704585 0.11512067
000090 1d 75 b6 bd 53 43 90 3d 1b ac 25 bd ca c3 26 3c
       -0.08909056 0.07044091 -0.040447336 0.010178516
0000a0 43 f9 06 3e 66 99 0e be 56 20 a1 bd 7c d7 0a be
       0.13181023 -0.13925704 -0.07867496 -0.13558763
0000b0 08 e4 c8 bd de 3e 99 3d da 01 02 be cc 8e ea bc
       -0.098091185 0.07482694 -0.12696019 -0.028632544
0000c0 89 3b cf 3d 06 75 aa 3d 24 41 bd 3d 5d 54 23 be
       0.10118777 0.08323102 0.0924094 -0.15950151
0000d0 ea c1 ad 3d 13 c7 98 3d ff 8a af bc 2f f7 7e 3d
       0.08484252 0.074598454 -0.021428583 0.06224745
0000e0 ed 17 f8 3d e5 f9 ff bd 43 2b 25 3d 1b c9 b7 3c
       0.121139385 -0.124988355 0.04032446 0.022434762
0000f0 fe 77 e3 3d ea 9e 7a 3d 13 27 ba 3d 10 53 8f 3d
       0.11106871 0.06118671 0.09089484 0.06998265
000100 96 ce 9f 3d 81 d7 c7 bc f3 01 49 3d 02 6a f7 bd
       0.07803075 -0.024394752 0.049074125 -0.12080766
000110 9a d2 6a bd e3 3c 24 3d ff a5 03 3d de d9 0a bd
       -0.05732975 0.04009713 0.032140728 -0.03389918
000120 7f 7d 0d be dc 9e dd bd 85 7f 05 3d 0d 13 c6 3d
       -0.13817404 -0.10821316 0.032592315 0.096716024
000130 ac f7 88 3d 69 0f d3 bc 5c 24 dc 3c ee 02 06 bd
       0.06687865 -0.025764184 0.026872806 -0.032717638
000140 81 d0 4d 3d 8a 82 6f bd 52 0a 98 3c bd 5d 85 bd
       0.050247673 -0.0584741 0.018559609 -0.0651202
000150 c5 ae 3b 3c 0b 2a ef 3d 73 60 84 bd 4a 55 97 bd
       0.0114552425 0.11677941 -0.06463709 -0.073893145
000160 80 4b 24 3e 18 8e 2c 3d 72 12 e3 3d 81 2d da 3d
       0.16044426 0.0421277 0.110875025 0.106532104
000170 45 86 d3 3d 74 02 91 3e eb bd 89 3b 16 f0 da 3d
       0.10328344 0.28322184 0.004203548 0.10690324
000180 a6 c3 97 bd 8c c8 de bc 1c 61 90 bd d9 a8 72 3d
       -0.07410364 -0.027195238 -0.07049772 0.059243057
000190 f3 43 01 3e a0 b6 cc 3d 55 73 e6 3c f0 95 c8 bc
       0.12623577 0.099957705 0.028131166 -0.024485558
0001a0 78 61 a9 3d e4 44 be bc 81 db 98 3d 71 07 8f 3d
       0.08270544 -0.023226209 0.07463742 0.06983841
0001b0 64 54 a8 3d 34 ba cd 3d f5 dc 53 bd 20 01 06 bc
       0.08219221 0.10045281 -0.051724393 -0.008178979
0001c0 c3 6c 9a bb a2 41 63 3d 44 23 57 3d b6 83 8d bc
       -0.0047126724 0.055482514 0.052523866 -0.017274719
0001d0 66 e0 02 3e 8b b0 92 bd cf 35 0b be a7 cb f7 3d
       0.12780914 -0.07162579 -0.13594745 0.120993905
0001e0 e8 84 f9 3c 1b a4 f5 bd 69 79 8c bd 95 a1 26 be
       0.030458882 -0.11994191 -0.06859095 -0.16272576
0001f0 54 65 69 3d 04 69 3f bc 57 0e 3c bd 0c 6e 01 3e
       0.0569814 -0.0116827525 -0.045912113 0.12639636
000200 03 99 e8 3c 3d 6f 8c 3d c6 13 b2 bd 5d c5 00 be
       0.028393274 0.068571545 -0.08695178 -0.12575288
000210 52 42 55 3d 9e 89 8a bb 22 df bd 3d da 5e 75 3d
       0.0520652 -0.004227831 0.09271075 0.05990491
000220 55 0e f6 3b 52 17 82 bd e0 85 8d bd ff d8 b2 3d
       0.0075090327 -0.06352104 -0.069103 0.08732795
000230 3b 2d 04 3e ec 6c eb bd 37 05 16 be 6d 17 62 bd
       0.12907879 -0.114953846 -0.14650427 -0.05519812
000240 bf a2 8e 3d 6a 7c d3 3d 39 71 bd 3d 76 d1 89 3d
       0.06964635 0.103264645 0.09250111 0.06729405
000250 97 3b 09 3e 9a d0 28 bc ec 86 5e 3c 36 ee 3c 3e
       0.13401638 -0.010303641 0.013581973 0.18450245
000260 0c ec c9 3d ff c0 82 3d f4 35 a7 bd a1 5b a2 3b
       0.098594755 0.06384467 -0.081645876 0.0049547707
000270 3d 3a a9 bd d3 4a ad bd b8 31 f5 bc b4 30 98 3c
       -0.08263061 -0.08461537 -0.029930934 0.018577911
000280 4a a5 15 3d 7b 8a 69 bd 92 eb 77 3d 0c fb 85 3b
       0.036534585 -0.05701683 0.06052739 0.004088765
000290 cc 00 c5 bd 21 f0 fb bd 4d c3 97 bc 1c e0 3b be
       -0.096192926 -0.1230166 -0.018525744 -0.1834721
0002a0 d3 93 9d 3c cf 49 d5 bd 79 12 1b be 84 f9 a9 3d
       0.019235527 -0.104144685 -0.15143766 0.082995445
0002b0 7f 07 06 be 5f 56 23 be 5e 0b 86 bd 9e 1f f5 3d
       -0.13088797 -0.15950917 -0.06545137 0.11968921
0002c0 c0 1c 22 3d 8d ab 74 3d 4c 3b 57 bc 58 8c bd 3d
       0.0395782 0.059733916 -0.013136696 0.09255284
0002d0 ee c1 99 bc 6c f1 6e 3b cd f9 31 3d a7 e9 26 bd
       -0.01876923 0.0036459817 0.04345112 -0.040750172
0002e0 5f 37 8f 3d 00 31 7f 3d 7c e3 4f 3c 8a 7f c3 3d
       0.06992983 0.06230259 0.012688514 0.095458105
0002f0 c9 c5 b8 3d 56 57 bd bd 4e 10 bb bc 45 ee e2 3a
       0.090220995 -0.09245174 -0.022834923 0.0017313441
000300 c6 8f 20 3c fa 2a d4 bc 55 a4 0a bd 5c 3b 81 3d
       0.009799903 -0.0258994 -0.033848125 0.0631015
000310 bd e1 a1 3c ee b6 a4 3d 50 e6 bc bc 6d 9b 05 3e
       0.01976096 0.080427036 -0.02305904 0.13047571
000320 52 4e 9e 3d c3 d0 0e 3e 05 78 a5 bd 6c a2 8d 3d
       0.07729782 0.13946824 -0.080795325 0.06915745
000330 5d bb 03 3c 65 70 dd 3c 8a 8a 0e 3c ad 11 93 bc
       0.008040276 0.027031133 0.0087000225 -0.017952764
000340 33 59 cb bd d7 74 b6 3d 71 d6 08 be 84 25 c1 bd
       -0.09929123 0.08909004 -0.13363053 -0.09430984
000350 77 72 77 3d 3e 21 51 3c 17 06 d6 bd 7f 52 38 3d
       0.060411897 0.012764273 -0.1045038 0.04500055
000360 27 a9 88 3c ad a0 00 be 47 f3 fa 3c 3b 35 58 3b
       0.01668222 -0.12561293 0.030633582 0.0032990712
000370 f7 54 ad 3c 79 17 a3 3d de e5 b7 3d 5c 5e 28 bd
       0.021158678 0.079634614 0.089793906 -0.041105613
000380 38 2a 03 bc cf d5 18 be 97 a0 7f 3c fa 7b 9c bd
       -0.008005671 -0.14925312 0.015602252 -0.07640834
000390 51 cb 5a bc a5 a0 c5 bc 9b 64 2a be e3 ed 27 3d
       -0.0133541385 -0.024124453 -0.1663994 0.04099835
0003a0 42 4f f9 3d 94 2d 0c be 5e 22 97 bd 48 42 6b bd
       0.1217332 -0.13689262 -0.07379602 -0.057436258
0003b0 ce 71 32 bd 7d 54 f9 bd a1 41 63 bb 0a a0 02 bd
       -0.043565564 -0.12174318 -0.003467657 -0.031890906
0003c0 4d e7 36 3d f8 fa c9 3d 50 f0 ff bc 19 2c a1 3d
       0.04465418 0.098623216 -0.03124252 0.07869739
0003d0 72 5a 27 bd 8f eb 13 3d 69 55 9c 3d 21 8c 08 3e
       -0.04085774 0.036113318 0.07633478 0.13334705
0003e0 c2 d8 a1 3d 94 e7 0f 3d 94 47 7c bd 72 6a 84 3d
       0.079026714 0.03513296 -0.0615917 0.06465615
0003f0 66 15 e9 3d c7 26 68 3c 15 65 a8 3d 7b 7c 75 3c
       0.113810346 0.0141694015 0.08222405 0.014983292

fo2.bias f4 [25]
000000 e6 17 cf bd f6 90 c4 3d 50 aa 2a bc 00 47 81 bd
       -0.1011198 0.095979616 -0.010416582 -0.0631237
000010 7e 6d 5e be c0 77 15 3d 4c b4 a4 3d 5e 66 f5 3d
       -0.21721455 0.036491156 0.080422014 0.119824156
000020 a3 5a 7f bc 15 5a 04 be a0 59 a5 bd 46 52 4b bd
       -0.015585574 -0.12924989 -0.08073735 -0.04963901
000030 ec ed f4 bc ff c0 57 3d 70 ad 90 bd f6 77 81 bb
       -0.029898606 0.05267429 -0.070643306 -0.003951068
000040 fa 10 bd 3d 57 01 04 3d 1f 58 7f 3d 19 a2 f2 3c
       0.09231754 0.03222784 0.0623399 0.02961831
000050 7a 8e 3a 3c 13 5c 1d be 43 38 9e bc 7b fb 50 3d
       0.011386508 -0.15367155 -0.019313937 0.05102108
000060 8b e8 79 bd
       -0.061012786

fo3.weight f4 [10, 25]
000000 9a ae 21 3c 61 2d b4 bd a8 33 5a 3d ad f0 0a be
       0.009868288 -0.08797718 0.05327192 -0.13568373
000010 06 86 c8 ba da 9d b6 bd 4f b1 36 3d 49 39 0c be
       -0.0015298731 -0.089168265 0.04460269 -0.13693728
000020 6c b2 c5 bd 37 93 94 bd af 0c 1d 3e 30 ed a7 bc
       -0.09653172 -0.072546415 0.1533687 -0.020498842
000030 fd 40 5b bd 29 3b 95 bd c6 3c 52 3c 7b d7 b1 bc
       -0.053528775 -0.072866745 0.012831872 -0.021709194
000040 e8 e2 59 3d a2 2a e3 bd e7 fb 1d 3d b2 62 30 bd
       0.05319491 -0.11092116 0.03857031 -0.043062873
000050 84 66 a6 3d 85 79 19 be 80 88 bb 3d 1d 8f ec 3d
       0.08125022 -0.14987762 0.09156895 0.11550734
000060 12 37 84 3d 02 63 96 3d 6e d8 5d be 66 cb cd bd
       0.06455816 0.07343103 -0.21664593 -0.10048561
000070 ca 94 ad 3d bf 74 10 3d 80 8e c7 bd e3 99 d4 bc
       0.08475645 0.035267588 -0.097439766 -0.025952285
000080 e1 da e7 3d 8e 87 09 be 94 22 2a bd 6b d9 44 3d
       0.11321045 -0.13430616 -0.041536883 0.04805891
000090 89 88 14 3e 8a 40 2d be 54 d3 c7 bd 61 04 5c 3d
       0.14505209 -0.16919151 -0.097571045 0.053715114
0000a0 e6 10 ed 3d 7f 58 e4 bd bf bc c0 3d d5 37 6d 3d
       0.11575489 -0.11149692 0.094110005 0.057914574
0000b0 ca 84 80 3d 81 71 ef 3d 7b 0b bc bd a9 5b df bd
       0.062753275 0.11691571 -0.09181877 -0.10906155
0000c0 71 1c a4 bd 0d b0 f3 bd aa 2a a0 bd 28 1f d7 3d
       -0.08013237 -0.118988134 -0.078206375 0.105039895
0000d0 a9 cc 8a 3d 6e 4a 3e 3e ed b3 4d bd 1a 7f 82 3c
       0.06777317 0.1858308 -0.05022042 0.015929747
0000e0 d7 18 fc bd d6 23 f2 3c 88 c0 62 3d ae 5e 99 bd
       -0.12309425 0.029558104 0.055359393 -0.07488762
0000f0 08 90 d1 3d 43 d2 ae 3c 93 ea 7a 3c 08 11 ec bd
       0.1023255 0.021340495 0.015314716 -0.11526686
000100 cd 07 17 3e fc 34 1f 3e 6e 6a ab bd fb fe 9f 3c
       0.1474907 0.15547556 -0.08369909 0.019530764
000110 23 26 5a 3d 13 12 cb bd c5 ae 0b be f2 86 39 be
       0.053259026 -0.09915557 -0.13640888 -0.18117884
000120 b3 c4 33 be c0 b2 a1 3d b9 ac b6 3b f9 5e 12 be
       -0.17555504 0.07895422 0.0055747894 -0.14294042
000130 2a 6c 3b 3d 21 33 17 be 07 d4 0e 3e 24 14 cd bc
       0.04575745 -0.14765598 0.1394807 -0.025034018
000140 14 a2 be 3d 5f 65 ed bd 63 dd 25 bd cd 71 c1 bc
       0.09308258 -0.115916006 -0.040494334 -0.023613835
000150 31 cb 94 bd c5 14 25 be 39 54 12 3e 00 df 09 3e
       -0.07265318 -0.16121204 0.14289941 0.13463974
000160 03 20 3a be 5a 93 1d 3c 5c 23 f0 3d 4a 59 a6 bb
       -0.18176274 0.009617651 0.11725494 -0.005076562
000170 2b 92 9c bc 7b fc f3 bc fb b8 49 be 37 a9 17 3e
       -0.019112667 -0.029783478 -0.1969947 0.14810644
000180 81 7f be 3d 8d e5 83 3d 80 88 e1 3d 39 bd b3 bd
       0.09301663 0.06440268 0.110123634 -0.08776326
000190 76 cf d9 3c 8c 5b 2b 3a 1a 9e af bd 46 60 00 3e
       0.026588183 0.0006536774 -0.08575077 0.12536725
0001a0 f3 5a 46 3e e6 5e a4 bd 33 ef 06 3e 20 44 e7 3d
       0.19370632 -0.08025913 0.13177185 0.11292291
0001b0 fe 55 e6 3d 9e d8 07 3e 5a c0 a8 bd 65 5b 87 bd
       0.112468705 0.13266227 -0.08239813 -0.06609229
0001c0 8d 00 22 be 4f 54 ec bd 5e 47 0b 3e 1c 3c f6 3d
       -0.15820523 -0.11539518 0.13601443 0.12023184
0001d0 8d 4c df bd 8b 8d 12 be 30 c7 ea bd 26 71 c1 bd
       -0.10903273 -0.14311807 -0.11463773 -0.094454095
0001e0 f1 37 d0 3d 09 bd 14 be c0 fe 2b bd b6 b8 1f 3c
       0.1016692 -0.14525236 -0.041990995 0.009748628
0001f0 bd 13 9c 3c c6 ed 5f 3d 7a 67 59 be 3e 02 23 3e
       0.01905238 0.054670118 -0.2123088 0.15918824
000200 02 da ab bc 05 36 04 3e e7 c9 0a bd 7f 9d 4f 3d
       -0.020977978 0.12911232 -0.033883955 0.05068731
000210 53 4e 74 bd b4 85 46 be a0 5b 71 bd 6f 5c ff 3c
       -0.05964501 -0.19386941 -0.05892527 0.031172005
000220 f1 03 e4 bd bd 71 3f be c3 db 0c 3e 9c 37 03 be
       -0.11133564 -0.18695731 0.13755707 -0.12814182
000230 b2 d4 d8 3d 7f be 98 3b 0f 9a 36 bd f4 1a aa bd
       0.105874434 0.004661381 -0.044580515 -0.08305922
000240 cb fa 2f be fa 5d 20 3e 9d cc e8 bd dc 69 9c bd
       -0.17185514 0.15660849 -0.11367152 -0.076373786
000250 a2 06 07 3d c2 a4 72 3d 19 fe 32 3e 91 a8 7a 3d
       0.03296531 0.059239157 0.17479743 0.061195914
000260 c8 68 7b 3d 70 5b 39 bd fa 8c 2b be 2c 5c 24 bd
       0.061379224 -0.045253217 -0.16752997 -0.040126964
000270 6d 53 29 bd 1a 4a 0f bd fd 4c 5f bd 14 5f 45 be
       -0.041339327 -0.034982778 -0.05451678 -0.1927455
000280 c4 16 37 3a c9 aa 82 3c a1 cb 83 bc e1 a7 b5 bd
       0.00069842883 0.015950577 -0.016088309 -0.08869911
000290 21 67 f2 3c 6f de 6c 3d 46 0d b8 3d b5 f9 0a bd
       0.029590191 0.057829317 0.08986907 -0.033929545
0002a0 76 ae 36 3e 7c 54 0f be 35 dc 85 bd 1c d2 99 bd
       0.17839989 -0.13997072 -0.06536142 -0.07510778
0002b0 d8 d9 9c bd c1 bd b7 3c 59 09 67 3e a4 2e e8 bd
       -0.07658738 0.022429349 0.2256216 -0.11337021
0002c0 2f 93 14 be 21 74 2b 3e 75 ba 04 bd a1 72 0c 3e
       -0.14509271 0.16743518 -0.03240438 0.13715602
0002d0 91 de ad bd 95 8a 98 bd f2 f0 10 bd 14 da 21 3e
       -0.08489717 -0.074483074 -0.035386033 0.15805846
0002e0 19 f8 d4 bd 32 f1 86 3d c5 ea 84 3c ff c4 4a bd
       -0.103988834 0.06588973 0.016225228 -0.049504276
0002f0 1d 05 01 be ed f1 d3 bd af 09 fb bb 5e 9e 69 3d
       -0.12599607 -0.10348878 -0.0076610665 0.057035796
000300 61 af 8c 3d 8e f6 18 be 7a dd 20 3e d1 15 3f be
       0.06869388 -0.14937803 0.15709487 -0.18660666
000310 52 8d a9 3d eb 81 ab 3c a2 b5 d4 bd b7 1c 37 3e
       0.08278908 0.020935973 -0.10386206 0.17882048
000320 5f 27 17 be f9 0c bc bd 0e 67 d9 3d 53 bc d7 3c
       -0.14761113 -0.09182162 0.10615359 0.026334917
000330 73 77 25 3e c4 de 20 bd 2a 2d 2f be a8 d4 44 bd
       0.16158848 -0.039274946 -0.17107072 -0.048054367
000340 d1 b2 bd 3c b8 91 54 be b9 f7 98 bd c1 c2 2a be
       0.023156555 -0.20758712 -0.07469124 -0.16675855
000350 8e 99 ec 3d 8b 88 b7 3d 51 3e 30 bb 19 82 ab bd
       0.11552726 0.089615904 -0.0026892612 -0.083744235
000360 d8 6c d7 3d b3 dc d7 3d 1d 4a 1c 3e d4 e9 2d 3e
       0.10518807 0.10540142 0.15262647 0.1698373
000370 8e 5d ef 3d 21 9b d0 3d fa d3 f5 bd 9b de ad 3c
       0.11687766 0.101858385 -0.12003322 0.02122431
000380 29 82 52 be 0c 2d 26 3e c9 ea 3f be 29 d1 07 be
       -0.20557465 0.16228122 -0.18741907 -0.13263382
000390 87 a8 23 3e f8 fc 32 3e e1 58 62 bd ff 57 28 be
       0.15982257 0.17479312 -0.055260543 -0.16439818
0003a0 60 83 cc bd d1 88 9e 3d 11 e8 08 3e 92 a8 b3 bd
       -0.09985995 0.077409394 0.13369776 -0.087723866
0003b0 2b 93 c2 bd c2 de 95 3d 7e 78 69 bd a4 96 36 3d
       -0.09500726 0.07317878 -0.056999676 0.044577256
0003c0 54 13 1b 3d 46 89 9b bd df 49 1e 3e 7f 5d 8d bd
       0.03786023 -0.07594542 0.15457867 -0.069025986
0003d0 4d 5d c9 3d 57 9c 0d be 69 2a 0b 3e b4 ef dd bd
       0.09832249 -0.1382917 0.13590397 -0.10836735
0003e0 bc ca 06 bd d6 b7 b9 bc
       -0.032908186 -0.022670668

fo3.bias f4 [10]
000000 37 3c 79 3d d9 ae 85 3c f7 8c 29 be 27 8e 3b bd
       0.06084844 0.016318725 -0.1655768 -0.045789864
000010 08 2a 25 be 07 cc ce 3d 1a 5b 96 bc e2 93 12 bd
       -0.16129315 0.10097509 -0.018353987 -0.035785563
000020 3f a4 1f 3c 7e 0a ae 3d
       0.009743749 0.08498095
